…
2021-06-09 02:19:57,895 Train: /home/shabnam/data/codes/data/dstrpt/2019-output/zho.pdtb.cdtb/sent_train.txt
2021-06-09 02:19:57,895 Dev: /home/shabnam/data/codes/data/dstrpt/2019-output/zho.pdtb.cdtb/sent_dev.txt
2021-06-09 02:19:57,895 Test: /home/shabnam/data/codes/data/dstrpt/2019-output/zho.pdtb.cdtb/sent_test.txt
Corpus: 2538 train + 541 dev + 490 test sentences
Dictionary with 5 tags: <unk>, O, B-SENT, <START>, <STOP>
2021-06-09 02:20:04,175 ----------------------------------------------------------------------------------------------------
2021-06-09 02:20:04,176 Model: "SequenceTagger(
  (embeddings): StackedEmbeddings(
    (list_embedding_0): CharacterEmbeddings(
      (char_embedding): Embedding(275, 25)
      (char_rnn): LSTM(25, 25, bidirectional=True)
    )
    (list_embedding_1): TransformerWordEmbeddings(
      (model): DistilBertModel(
        (embeddings): Embeddings(
          (word_embeddings): Embedding(119547, 768, padding_idx=0)
          (position_embeddings): Embedding(512, 768)
          (LayerNorm): LayerNorm((768,), eps=1e-12, elementwise_affine=True)
          (dropout): Dropout(p=0.1, inplace=False)
        )
        (transformer): Transformer(
          (layer): ModuleList(
            (0): TransformerBlock(
              (attention): MultiHeadSelfAttention(
                (dropout): Dropout(p=0.1, inplace=False)
                (q_lin): Linear(in_features=768, out_features=768, bias=True)
                (k_lin): Linear(in_features=768, out_features=768, bias=True)
                (v_lin): Linear(in_features=768, out_features=768, bias=True)
                (out_lin): Linear(in_features=768, out_features=768, bias=True)
              )
              (sa_layer_norm): LayerNorm((768,), eps=1e-12, elementwise_affine=True)
              (ffn): FFN(
                (dropout): Dropout(p=0.1, inplace=False)
                (lin1): Linear(in_features=768, out_features=3072, bias=True)
                (lin2): Linear(in_features=3072, out_features=768, bias=True)
              )
              (output_layer_norm): LayerNorm((768,), eps=1e-12, elementwise_affine=True)
            )
            (1): TransformerBlock(
              (attention): MultiHeadSelfAttention(
                (dropout): Dropout(p=0.1, inplace=False)
                (q_lin): Linear(in_features=768, out_features=768, bias=True)
                (k_lin): Linear(in_features=768, out_features=768, bias=True)
                (v_lin): Linear(in_features=768, out_features=768, bias=True)
                (out_lin): Linear(in_features=768, out_features=768, bias=True)
              )
              (sa_layer_norm): LayerNorm((768,), eps=1e-12, elementwise_affine=True)
              (ffn): FFN(
                (dropout): Dropout(p=0.1, inplace=False)
                (lin1): Linear(in_features=768, out_features=3072, bias=True)
                (lin2): Linear(in_features=3072, out_features=768, bias=True)
              )
              (output_layer_norm): LayerNorm((768,), eps=1e-12, elementwise_affine=True)
            )
            (2): TransformerBlock(
              (attention): MultiHeadSelfAttention(
                (dropout): Dropout(p=0.1, inplace=False)
                (q_lin): Linear(in_features=768, out_features=768, bias=True)
                (k_lin): Linear(in_features=768, out_features=768, bias=True)
                (v_lin): Linear(in_features=768, out_features=768, bias=True)
                (out_lin): Linear(in_features=768, out_features=768, bias=True)
              )
              (sa_layer_norm): LayerNorm((768,), eps=1e-12, elementwise_affine=True)
              (ffn): FFN(
                (dropout): Dropout(p=0.1, inplace=False)
                (lin1): Linear(in_features=768, out_features=3072, bias=True)
                (lin2): Linear(in_features=3072, out_features=768, bias=True)
              )
              (output_layer_norm): LayerNorm((768,), eps=1e-12, elementwise_affine=True)
            )
            (3): TransformerBlock(
              (attention): MultiHeadSelfAttention(
                (dropout): Dropout(p=0.1, inplace=False)
                (q_lin): Linear(in_features=768, out_features=768, bias=True)
                (k_lin): Linear(in_features=768, out_features=768, bias=True)
                (v_lin): Linear(in_features=768, out_features=768, bias=True)
                (out_lin): Linear(in_features=768, out_features=768, bias=True)
              )
              (sa_layer_norm): LayerNorm((768,), eps=1e-12, elementwise_affine=True)
              (ffn): FFN(
                (dropout): Dropout(p=0.1, inplace=False)
                (lin1): Linear(in_features=768, out_features=3072, bias=True)
                (lin2): Linear(in_features=3072, out_features=768, bias=True)
              )
              (output_layer_norm): LayerNorm((768,), eps=1e-12, elementwise_affine=True)
            )
            (4): TransformerBlock(
              (attention): MultiHeadSelfAttention(
                (dropout): Dropout(p=0.1, inplace=False)
                (q_lin): Linear(in_features=768, out_features=768, bias=True)
                (k_lin): Linear(in_features=768, out_features=768, bias=True)
                (v_lin): Linear(in_features=768, out_features=768, bias=True)
                (out_lin): Linear(in_features=768, out_features=768, bias=True)
              )
              (sa_layer_norm): LayerNorm((768,), eps=1e-12, elementwise_affine=True)
              (ffn): FFN(
                (dropout): Dropout(p=0.1, inplace=False)
                (lin1): Linear(in_features=768, out_features=3072, bias=True)
                (lin2): Linear(in_features=3072, out_features=768, bias=True)
              )
              (output_layer_norm): LayerNorm((768,), eps=1e-12, elementwise_affine=True)
            )
            (5): TransformerBlock(
              (attention): MultiHeadSelfAttention(
                (dropout): Dropout(p=0.1, inplace=False)
                (q_lin): Linear(in_features=768, out_features=768, bias=True)
                (k_lin): Linear(in_features=768, out_features=768, bias=True)
                (v_lin): Linear(in_features=768, out_features=768, bias=True)
                (out_lin): Linear(in_features=768, out_features=768, bias=True)
              )
              (sa_layer_norm): LayerNorm((768,), eps=1e-12, elementwise_affine=True)
              (ffn): FFN(
                (dropout): Dropout(p=0.1, inplace=False)
                (lin1): Linear(in_features=768, out_features=3072, bias=True)
                (lin2): Linear(in_features=3072, out_features=768, bias=True)
              )
              (output_layer_norm): LayerNorm((768,), eps=1e-12, elementwise_affine=True)
            )
          )
        )
      )
    )
  )
  (word_dropout): WordDropout(p=0.05)
  (locked_dropout): LockedDropout(p=0.5)
  (embedding2nn): Linear(in_features=3122, out_features=3122, bias=True)
  (rnn): LSTM(3122, 256, batch_first=True, bidirectional=True)
  (linear): Linear(in_features=512, out_features=5, bias=True)
  (beta): 1.0
  (weights): None
  (weight_tensor) None
)"
2021-06-09 02:20:04,176 ----------------------------------------------------------------------------------------------------
2021-06-09 02:20:04,176 Corpus: "Corpus: 2538 train + 541 dev + 490 test sentences"
2021-06-09 02:20:04,176 ----------------------------------------------------------------------------------------------------
…
